chatbot_model.tflite (tflite, 65328 bytes, 6 tensors)

arith.constant f4 [128]
000000 55 d6 1e 3d 98 d4 28 be d7 23 01 be 7a 71 21 3d
       0.03877862 -0.16487348 -0.12611328 0.03941486
000010 32 51 70 bd 35 43 21 be f9 9c 8c be d4 0c da bd
       -0.058671184 -0.15748294 -0.2746351 -0.10646978
000020 a3 f8 e6 bc 4d f6 8b 3d 3c ee 99 bd 1b 53 ea bc
       -0.028194731 0.068340875 -0.07516143 -0.02860408
000030 46 e7 d5 be 93 1a aa be f7 55 90 be e9 be c5 3d
       -0.4177801 -0.332234 -0.28190586 0.09655554
000040 73 ac 37 3e 22 49 20 3e 2c 9c 59 3d ce ac d9 bd
       0.17936878 0.15652898 0.053127453 -0.10628663
000050 38 78 54 3d 90 7c b2 bd de 02 f2 bd c1 16 c1 be
       0.051872462 -0.08715165 -0.11816953 -0.37712672
000060 84 cc 26 3e 91 d8 fe bd 1f 86 d1 bd 38 12 96 bc
       0.16288954 -0.124436505 -0.1023066 -0.018319234
000070 24 72 e8 bd f2 c9 58 be 1f 3a 44 be 75 82 13 3e
       -0.113498956 -0.21170786 -0.19162796 0.14405234
000080 09 74 ca bc c7 39 d5 bd 4d 5f 10 be 06 24 81 3d
       -0.024713533 -0.10411411 -0.14098854 0.06305699
000090 87 2e 07 3d f9 87 b1 bd b3 82 44 be 59 94 4c 3d
       0.033003356 -0.08668513 -0.19190483 0.049946163
0000a0 eb e2 1b 3d 2f d2 31 be 64 1e bd bd 0b 10 4f be
       0.038058203 -0.17365335 -0.09234312 -0.20220964
0000b0 57 b5 9f bd 1f 15 20 3e 98 47 03 be 7d 2c 90 bc
       -0.0779826 0.15633057 -0.1282028 -0.017599339
0000c0 ee 36 53 bd 04 84 2f bc f8 78 07 be 06 65 85 3d
       -0.051566057 -0.010712627 -0.1322974 0.06513409
0000d0 b9 b3 db bd 77 2d 19 be 37 25 17 be 28 bc 14 be
       -0.10727639 -0.1495875 -0.1476029 -0.14524901
0000e0 9d 1a 7f bd 87 d9 a6 3d 05 be 6e 3c ba 86 58 be
       -0.06228124 0.08146959 0.014571671 -0.21145144
0000f0 6f 63 02 be d6 f4 19 be 49 d5 c8 be 9c e8 c8 3d
       -0.12733243 -0.15034804 -0.39225224 0.09809992
000100 39 ef 4e 3e 00 c0 a0 be f3 d5 70 bd 08 4b c2 bc
       0.20208444 -0.31396484 -0.058797788 -0.023717418
000110 9e c3 87 3d b5 05 5e 3d cf 8c 30 bc 6e 18 c0 bd
       0.06629108 0.05420466 -0.010775759 -0.093796596
000120 4e 40 48 bd 5e bf 0c 3e a0 a7 39 bd 48 a5 23 be
       -0.04888945 0.13744876 -0.045325875 -0.15981019
000130 10 9c 04 bd b1 93 09 be ec d4 d2 bc 17 22 47 bd
       -0.032375395 -0.13435246 -0.025736295 -0.048616495
000140 3f 79 48 be ce ce ad be b0 7f 26 bd 95 c5 1e be
       -0.19577502 -0.33946842 -0.040649116 -0.15505059
000150 36 3b 20 3d 3f 6c c1 be d2 32 57 3d 5f 5c 19 bd
       0.039118968 -0.37777898 0.0525387 -0.037441608
000160 81 c1 d6 bd 43 bc a4 3d c4 27 fc 3b 42 41 35 be
       -0.10486127 0.080437206 0.00769517 -0.17700675
000170 a7 7a 21 bd a9 62 8e 3d b6 21 02 be 97 fe 26 bd
       -0.03942361 0.06952412 -0.12708172 -0.04077014
000180 67 8c 37 3e 41 00 44 be 5f ab eb bd c2 9d 05 be
       0.17924653 -0.19140722 -0.11507296 -0.13048461
000190 bc b3 c0 bd 98 99 83 bd 78 fa 89 3d dc bc 94 be
       -0.094092816 -0.0642578 0.06737226 -0.29050338
0001a0 7c 94 41 bd ad 32 e8 bd e0 d4 7b 3c 2c f8 1d be
       -0.047260746 -0.11337791 0.015370578 -0.15426701
0001b0 d9 11 bd bd 00 20 7e 3d 9d 97 d1 bc b9 31 32 be
       -0.0923192 0.062042236 -0.02558499 -0.1740178
0001c0 2a 96 43 bd 30 6a 1d 3e 9c 55 32 be f6 52 23 be
       -0.04775063 0.15372539 -0.1741547 -0.15949616
0001d0 56 41 26 be 20 e7 22 3e a2 d1 08 3e 61 bb d2 3d
       -0.16235861 0.1590848 0.13361219 0.10289646
0001e0 60 57 01 3d d5 85 11 3d 12 a8 4b 3d 12 3e 18 be
       0.031577468 0.035528023 0.04972083 -0.14867428
0001f0 55 65 7e 3d 9b 91 b8 be 17 2d b9 be 46 8e b4 be
       0.062108357 -0.36048588 -0.36167213 -0.35264796

arith.constant1 f4 [64]
000000 b6 50 94 3e cb b3 07 3e 17 4d d4 3e 1e 45 c3 3d
       0.28967828 0.1325218 0.41465065 0.095346674
000010 94 82 0b bd 79 e8 c1 3d 30 b6 65 be ce f6 f6 3d
       -0.034060076 0.09468169 -0.2243278 0.12058793
000020 6e 33 cf bd f9 ae 88 3d 11 23 09 bf d0 47 1b bf
       -0.10117231 0.066739984 -0.5356913 -0.6065645
000030 e8 cd 7c be 09 f6 67 be bf fe 7e 3e ba 8a 8d 3e
       -0.24687922 -0.22652449 0.24901865 0.27644902
000040 bf ba 48 bc e7 31 2b 3e 09 19 b9 bd dd f3 1e be
       -0.012251555 0.16718255 -0.09037978 -0.15522714
000050 6b e7 d5 3e ce 23 a6 3e cd 59 39 be f0 b9 22 3e
       0.4177812 0.32449192 -0.18100663 0.15891242
000060 b7 b9 4a 3f 10 93 c8 3d 37 17 17 bf ef 43 d0 3e
       0.7918963 0.09793675 -0.590198 0.4067683
000070 a7 fd 01 bd b6 b1 af 3e 8a 1f 8b 3c d0 ca be 3d
       -0.031736042 0.3431527 0.016982812 0.09316027
000080 bd 61 17 bf 50 fc 85 be d1 03 a0 3e f4 a5 71 3f
       -0.5913351 -0.26169062 0.31252912 0.9439385
000090 3f a2 09 bd 77 32 d3 be b4 3e 2d 3d 4f 01 87 be
       -0.033601996 -0.4124944 0.042296126 -0.26368186
0000a0 d7 ae bf be 3a 9c b4 3e ae f3 03 3f d7 ed 9b 3d
       -0.3743808 0.3527544 0.515437 0.07613724
0000b0 b7 ff ea 3e ce 26 d1 3e e1 d3 84 be 18 29 22 3e
       0.4589822 0.40849918 -0.259429 0.15835989
0000c0 e7 1a 43 3d 9c 99 b8 be 00 d2 98 3c c5 58 9a be
       0.047633078 -0.36054695 0.018654823 -0.3014585
0000d0 85 97 ec 3e df d2 0f be 2d b1 07 3d fb 45 f8 3e
       0.4620935 -0.14045285 0.033127952 0.4849089
0000e0 3e 60 c4 3e 1d fc f9 3d d3 55 e9 be 24 51 06 bd
       0.38354677 0.1220629 -0.4557329 -0.032792225
0000f0 b1 77 4b bd 8f 75 45 bf 4d c3 cb 3a c5 d7 bc 3d
       -0.049674693 -0.77132505 0.0015545875 0.09220842

arith.constant2 f4 [66]
000000 5a 21 2f bf 3a 4a 73 bf c5 86 34 bf da ec 8e be
       -0.68410265 -0.95035136 -0.7051814 -0.27915078
000010 88 23 9b 3e ba d6 10 40 e2 c2 9f be ba 80 b7 3e
       0.30300546 2.2631059 -0.3120337 0.35840398
000020 61 9b 72 bf eb 94 62 bf 3d d2 05 be e5 cb 8f be
       -0.9476834 -0.8850848 -0.13068481 -0.28085247
000030 6c 79 c3 3f 52 9b 5b bf ea 3f e3 be bf 41 69 bf
       1.527143 -0.85783875 -0.443847 -0.91115946
000040 58 a2 71 3c f9 41 f9 3f 8f 82 94 3e 75 68 eb be
       0.014748178 1.9473258 0.29005858 -0.45978132
000050 d0 b0 c8 be 47 c5 fb be 29 33 07 3f 60 a0 b0 be
       -0.39197397 -0.49173948 0.5281244 -0.34497356
000060 61 28 70 bf ec 40 2e bf e3 4e 27 bf bc a5 10 3f
       -0.93811613 -0.6806781 -0.65354747 0.5650289
000070 b7 3c 9b 3d e0 0f 9c be be c4 b3 3f 10 5a a6 bd
       0.0757994 -0.30480862 1.4044416 -0.08122647
000080 4d 78 e8 3e c9 20 3c bf 5d 73 83 3e 5f 24 1e 3f
       0.45404282 -0.73487526 0.25673953 0.6177425
000090 d9 0d 00 3f 67 68 20 3e 50 dc 11 bd 51 16 92 3e
       0.5002113 0.15664826 -0.035610497 0.2853265
0000a0 cf 0e 44 bd e4 5c f9 be f0 54 d5 3e 6d 69 53 3f
       -0.047865685 -0.48703682 0.41666365 0.8258274
0000b0 71 84 12 be dc b3 b9 bf ce 04 f2 3e 3d 01 21 bf
       -0.14308335 -1.4508014 0.4726929 -0.62892514
0000c0 b1 64 80 3e 7e 93 b6 3e 12 e0 1f 3f 05 d9 93 3f
       0.2507682 0.35659403 0.6245128 1.1550604
0000d0 97 92 a6 be 61 01 51 bf 91 f5 64 3e f8 b3 ff bd
       -0.32533714 -0.8164273 0.22359301 -0.12485498
0000e0 23 0c ce 3e f4 c4 98 3f 7e 20 eb bd 19 c2 e9 3e
       0.40243635 1.1935105 -0.11480807 0.45655897
0000f0 b9 4e f4 3e 1c 9c 99 be 9f b7 68 3e 9a 0d 4f bf
       0.4771631 -0.30001915 0.22726296 -0.8088013
000100 3a 9f 16 bf c1 ec 93 be
       -0.5883671 -0.28891566

tfl.pseudo_qconst i1 [66, 64]
000000 c2 d3 e7 47 e2 66 44 35 3d 4c d5 2b 46 5e c3 c5
       -62 -45 -25 71 -30 102 68 53 61 76 -43 43 70 94 -61 -59
000010 7f d7 c4 d3 d7 df d6 19 e8 b5 cb e9 d1 31 f1 c0
       127 -41 -60 -45 -41 -33 -42 25 -24 -75 -53 -23 -47 49 -15 -64
000020 f5 cb c8 c4 b5 de 48 4b ce dd c1 28 50 56 ea d9
       -11 -53 -56 -60 -75 -34 72 75 -50 -35 -63 40 80 86 -22 -39
000030 6d 03 f5 cf be dd ef bd 45 7f 59 cb f0 3c e8 4f
       109 3 -11 -49 -66 -35 -17 -67 69 127 89 -53 -16 60 -24 79
000040 d1 bb 75 59 56 6c 5e d0 ac bc 00 57 7f 96 ba c0
       -47 -69 117 89 86 108 94 -48 -84 -68 0 87 127 -106 -70 -64
000050 5b f3 be e3 c2 c1 cb 5c eb 09 e2 be d8 cb dd d3
       91 -13 -66 -29 -62 -63 -53 92 -21 9 -30 -66 -40 -53 -35 -45
000060 67 d6 65 e1 bb 75 0a 55 30 e3 b7 79 5d eb af b7
       103 -42 101 -31 -69 117 10 85 48 -29 -73 121 93 -21 -81 -73
000070 c6 3a d6 44 e1 02 d6 0c b3 f4 3e 27 ee 7d 7f 10
       -58 58 -42 68 -31 2 -42 12 -77 -12 62 39 -18 125 127 16
000080 10 3a fa e9 fa 11 11 f0 3a e1 4e 34 d6 e4 65 d4
       16 58 -6 -23 -6 17 17 -16 58 -31 78 52 -42 -28 101 -44
000090 00 db 41 f3 17 f3 0a ca e0 d4 1f ed e0 00 7f 4f
       0 -37 65 -13 23 -13 10 -54 -32 -44 31 -19 -32 0 127 79
0000a0 e6 51 60 d0 19 ed c7 0a fa 39 fc 12 ed 05 3d d3
       -26 81 96 -48 25 -19 -57 10 -6 57 -4 18 -19 5 61 -45
0000b0 da 42 d2 f1 f3 4a 30 cf da e7 1d d0 e8 3d 48 e4
       -38 66 -46 -15 -13 74 48 -49 -38 -25 29 -48 -24 61 72 -28
0000c0 ec 61 b9 d3 ce f2 ab 69 a8 0d fc 7f b8 6e ca ab
       -20 97 -71 -45 -50 -14 -85 105 -88 13 -4 127 -72 110 -54 -85
0000d0 77 fe 6a be 36 bc 40 33 ea b4 e4 09 be c4 d4 dc
       119 -2 106 -66 54 -68 64 51 -22 -76 -28 9 -66 -60 -44 -36
0000e0 ea 06 33 a9 75 44 b1 d1 48 b0 f9 51 64 cf e5 b7
       -22 6 51 -87 117 68 -79 -47 72 -80 -7 81 100 -49 -27 -73
0000f0 fc ba a6 d8 e6 2d b0 f6 71 d1 61 b9 18 e6 d8 73
       -4 -70 -90 -40 -26 45 -80 -10 113 -47 97 -71 24 -26 -40 115

tfl.pseudo_qconst1 i1 [64, 128]
000000 11 2b 07 e2 0d 1b 32 e7 cc 15 fd 09 d4 e5 d1 ef
       17 43 7 -30 13 27 50 -25 -52 21 -3 9 -44 -27 -47 -17
000010 e7 fe 0b e6 06 ff 27 e2 02 56 13 11 01 d3 f9 1d
       -25 -2 11 -26 6 -1 39 -30 2 86 19 17 1 -45 -7 29
000020 0c 0f 1d 0d 16 0a f7 13 0f f7 ff e4 0d 13 14 34
       12 15 29 13 22 10 -9 19 15 -9 -1 -28 13 19 20 52
000030 22 0f ec 11 38 09 0b fb 17 0c 20 f5 2b ca cd 7f
       34 15 -20 17 56 9 11 -5 23 12 32 -11 43 -54 -51 127
000040 04 d8 f0 df 0c 0b fd f1 df c6 24 d2 bd 07 04 fc
       4 -40 -16 -33 12 11 -3 -15 -33 -58 36 -46 -67 7 4 -4
000050 be 1e e7 06 5e 24 f6 1c f7 30 1f 1a ed f1 b8 28
       -66 30 -25 6 94 36 -10 28 -9 48 31 26 -19 -15 -72 40
000060 db b4 e6 d1 c7 00 0b fe d6 fc 0e e2 20 1e 25 cf
       -37 -76 -26 -47 -57 0 11 -2 -42 -4 14 -30 32 30 37 -49
000070 01 fe df 0d ff 05 21 cc f0 f1 d0 fc fd d5 e6 f6
       1 -2 -33 13 -1 5 33 -52 -16 -15 -48 -4 -3 -43 -26 -10
000080 a1 c8 c4 30 b0 e0 1e a6 2d 26 aa c9 01 2d 52 07
       -95 -56 -60 48 -80 -32 30 -90 45 38 -86 -55 1 45 82 7
000090 3a cd eb 2b ca 21 ed e1 11 cb b3 be 34 9f 76 1d
       58 -51 -21 43 -54 33 -19 -31 17 -53 -77 -66 52 -97 118 29
0000a0 ff 12 0e e4 db 01 68 46 00 30 d8 0b 7f f1 0d f4
       -1 18 14 -28 -37 1 104 70 0 48 -40 11 127 -15 13 -12
0000b0 bf 08 ea 00 c8 b5 92 58 ab 41 ee fb c1 d1 08 fb
       -65 8 -22 0 -56 -75 -110 88 -85 65 -18 -5 -63 -47 8 -5
0000c0 d5 61 f1 26 c1 e9 d2 06 48 2e 53 fb 17 fc 35 e3
       -43 97 -15 38 -63 -23 -46 6 72 46 83 -5 23 -4 53 -29
0000d0 25 3f 63 f4 38 d0 06 f6 0b 0e ab 27 ee 15 28 43
       37 63 99 -12 56 -48 6 -10 11 14 -85 39 -18 21 40 67
0000e0 07 ec 2a 18 01 18 98 02 05 2f 00 54 20 b0 06 a6
       7 -20 42 24 1 24 -104 2 5 47 0 84 32 -80 6 -90
0000f0 c0 8f 0f d7 e5 08 b9 e5 eb 2a 11 ce c8 da 22 e1
       -64 -113 15 -41 -27 8 -71 -27 -21 42 17 -50 -56 -38 34 -31

sequential_1/dense_1/MatMul i1 [128, 364]
000000 f1 ed 05 07 fb f9 f8 05 f2 02 f9 f7 f9 f6 f9 04
       -15 -19 5 7 -5 -7 -8 5 -14 2 -7 -9 -7 -10 -7 4
000010 08 f7 f6 fa fe c8 fd f6 f8 0b f9 05 ea ed d9 0a
       8 -9 -10 -6 -2 -56 -3 -10 -8 11 -7 5 -22 -19 -39 10
000020 fa f9 1b f9 ec 1c 0d 0f 1e 18 11 14 12 ef f5 f6
       -6 -7 27 -7 -20 28 13 15 30 24 17 20 18 -17 -11 -10
000030 fa 16 06 fb 29 49 de fa 2b f4 f9 f0 f5 ff 13 f8
       -6 22 6 -5 41 73 -34 -6 43 -12 -7 -16 -11 -1 19 -8
000040 fb 06 f9 f4 fa f1 f1 ef fb f1 01 f4 05 25 fd fa
       -5 6 -7 -12 -6 -15 -15 -17 -5 -15 1 -12 5 37 -3 -6
000050 f2 0b f7 00 ee 16 fe f9 f5 e4 f9 0a f7 f6 f4 01
       -14 11 -9 0 -18 22 -2 -7 -11 -28 -7 10 -9 -10 -12 1
000060 fa f2 f7 07 05 0a fe fa fc fd fb 01 f6 fa fa 04
       -6 -14 -9 7 5 10 -2 -6 -4 -3 -5 1 -10 -6 -6 4
000070 f8 fe fe f8 e9 13 10 19 26 01 23 3c f4 01 f3 ef
       -8 -2 -2 -8 -23 19 16 25 38 1 35 60 -12 1 -13 -17
000080 f4 09 fb f1 1d 1a 06 22 f8 ee fe f0 fd f3 f6 f8
       -12 9 -5 -15 29 26 6 34 -8 -18 -2 -16 -3 -13 -10 -8
000090 fb fa ff fb 02 fc ff ed ee f8 02 1d 13 03 08 f3
       -5 -6 -1 -5 2 -4 -1 -19 -18 -8 2 29 19 3 8 -13
0000a0 f0 f3 00 f0 f6 36 f7 fa fd ff e2 f0 e8 f6 05 ed
       -16 -13 0 -16 -10 54 -9 -6 -3 -1 -30 -16 -24 -10 5 -19
0000b0 f7 ff fa f4 ee fb fb 1c f5 0e 11 f2 26 f6 1b 14
       -9 -1 -6 -12 -18 -5 -5 28 -11 14 17 -14 38 -10 27 20
0000c0 0a 03 ff 04 ff e9 2a fb 26 f1 fb fd f4 1e 2b ee
       10 3 -1 4 -1 -23 42 -5 38 -15 -5 -3 -12 30 43 -18
0000d0 ec 03 f3 f3 fe 15 f2 f2 fb f9 f9 f1 f5 05 09 00
       -20 3 -13 -13 -2 21 -14 -14 -5 -7 -7 -15 -11 5 9 0
0000e0 fb f7 f8 e8 f6 f3 08 04 fb fa f1 fe fa 04 f7 fd
       -5 -9 -8 -24 -10 -13 8 4 -5 -6 -15 -2 -6 4 -9 -3
0000f0 fa 0f f7 05 f7 0c 05 ff fd e9 f9 f9 0c da ff fa
       -6 15 -9 5 -9 12 5 -1 -3 -23 -7 -7 12 -38 -1 -6
